OneDrive/Desktop/Swajyot/AutoScanML-main/Simple Login/backend/uploads/basic.pt (torch, 2839 bytes, 1 tensors)

weight f4 [10, 10]
000000 b7 5f d7 be 08 7d bf bf 13 88 c1 bf fb 58 5d bf
       -0.42065212 -1.4960032 -1.5119652 -0.864639
000010 0c 48 8f 3f 40 56 31 bf e3 35 f5 be 64 4c d8 3d
       1.1193862 -0.6927223 -0.47892675 0.10561445
000020 27 e4 02 3f a8 c9 1a 40 14 06 55 3e ce 76 2d be
       0.5112938 2.4185581 0.208031 -0.16939852
000030 bf 57 9e 3f 21 f5 e9 3e 8f a0 b5 3f ec 32 7b be
       1.2370528 0.4569483 1.4189624 -0.24531144
000040 ca 4a 7a bf 88 be 03 3c e0 a9 25 bf 75 15 95 be
       -0.9777037 0.008041032 -0.64712334 -0.29117933
000050 bb bc df be 02 b1 ce bf 83 08 f8 3d 91 1a 7c 3f
       -0.43698677 -1.6147768 0.121109985 0.9847804
000060 8b 7e 3c 3f 92 1c 29 3e 62 e9 04 3f 4c 65 3a bf
       0.7363059 0.16514805 0.51918614 -0.72810817
000070 d0 a6 dd bd f8 48 b2 3f ec 0b 48 3f 73 e5 45 bf
       -0.108228326 1.3928518 0.7814319 -0.77303237
000080 a3 21 68 be 3f d8 2b 3e 07 75 97 bf d7 f6 97 bf
       -0.22669081 0.1678171 -1.1832589 -1.1872205
000090 6e 8c 17 bf d2 d3 3c bf ab 12 19 3f e9 9c 0e 3d
       -0.59198654 -0.7376071 0.5979411 0.03481761
0000a0 22 33 46 be 30 d4 12 3f e6 48 2e bf 2b f3 f3 be
       -0.19355443 0.5735502 -0.68079984 -0.4764646
0000b0 10 75 f1 bc ed 93 01 3f 7d 0d eb 3e 40 80 5a be
       -0.029474765 0.5061634 0.45908728 -0.21337986
0000c0 0c 3a 08 40 ef 26 ba bf ba e1 77 bf 9f 1a 50 bf
       2.128543 -1.4543132 -0.96828806 -0.8129062
0000d0 31 fe 22 3d fc fa 07 c0 a4 c4 1e 3e d6 0c 14 3f
       0.039793197 -2.1246939 0.155047 0.57832086
0000e0 87 52 2a 3f ad 9f f4 bf ec db 79 3e eb f3 0f bf
       0.66532177 -1.9111229 0.244003 -0.56231564
0000f0 09 7e 76 3e ac 69 c6 bf 1c ef 84 bf bc a7 9c 3f
       0.24071516 -1.5500998 -1.038547 1.2238688
000100 2f 3b d1 bf ca 83 b4 3f 77 31 08 bf 98 7e 44 3e
       -1.6346186 1.4102719 -0.5320048 0.19188917
000110 aa 6a b0 bf e9 c7 10 c0 bc a2 81 3e e8 e2 c5 3e
       -1.3782551 -2.2622015 0.2531947 0.38649678
000120 e7 7c b6 be 47 5b cf be e8 20 20 3f 47 f6 c3 3f
       -0.35642168 -0.40499327 0.6255021 1.5309533
000130 37 2d 27 c0 4b 7b 37 be 6f 01 da 3f c5 77 54 bf
       -2.6121347 -0.17918126 1.7031687 -0.82995254
000140 4e f2 27 bf f0 38 d5 bf 67 ab 3f be 5e d9 42 3f
       -0.656041 -1.6658001 -0.18717729 0.76112926
000150 7f d3 7f bf 09 6c 9a 3f 85 41 b8 bf 89 e4 12 bf
       -0.9993209 1.206422 -1.4394995 -0.57379967
000160 2c 67 90 bf b7 21 47 3f 54 6e ce be 34 99 ad 3f
       -1.1281486 0.7778582 -0.4031855 1.3562379
000170 b2 04 ce bf 40 af 06 bf 46 84 2b 3f 6b a1 41 3f
       -1.6095183 -0.5261116 0.6699871 0.7563693
000180 a9 82 f1 3f 0d e6 2c bf 69 42 e1 bf 73 9a 0e 3f
       1.8867999 -0.6753853 -1.7598392 0.5570442
