OneDrive/Desktop/Swajyot/AutoScanML-main/Simple Login/backend/uploads/vuln_model2.pt (torch, 3632 bytes, 4 tensors)

weight f4 [10, 10]
00000000: 2077 e4bc 2e19 543e 2060 b73d e0b4 ba3d
00000010: 3864 19bd 66fb 693e 48e9 6ebd f359 8b3e
00000020: 353f 14be 00db a43b b18e 9b3e 36d7 463e
00000030: 46bc febd 7c52 ca3d d0b1 65bd 142a bf3d
00000040: 00c3 66be ceb3 263e 3854 ba3d d516 4abe
00000050: 83de 74be 9d2f 89be 1148 3abe 885e f1bd
00000060: 94ee 9b3d 50c9 c1bc 3044 143e 20f6 12bd
00000070: 801d 91bc f93a 9ebe 1bbf 8b3e c5c0 6bbe
00000080: a8af e0bd eb3b 853e 85a3 8a3e 8b8d 2bbe
00000090: 62e3 72be b515 863e b888 86be 408d b3bd
000000a0: b01d 62bd 0558 0cbe fbd3 83be 5416 fd3d
000000b0: 7026 3ebd b24a 3e3e 9e0f 7b3e fa90 98be
000000c0: 3edb 80be 30c5 84bc ae18 9abd e6b7 a6bd
000000d0: 8754 923e e82b 7bbe 50d5 083e 7272 463e
000000e0: 9eec 3d3e e09e acbd 84eb db3d 48ed 543d
000000f0: fbdc 823e 4a73 71be 205b e6bc 2edb 2dbe
00000100: c0c1 313e c088 e93c 2239 55be 50b2 90be
00000110: b0a3 ad3c b0e4 83be 0501 a03e 1ada 68be
00000120: ac97 6bbe 0a71 0c3e 8d05 8c3e af43 92be
00000130: 8b25 903e b027 0c3d a852 603d ca60 5c3e
00000140: 38a5 933d 200b 583c f918 863e c7eb 8fbe
00000150: 0082 f7bb 2bcc 23be 406d 84be ee3e 413e
00000160: 00e3 29bd 848c 87bd a800 e23d 4c94 4dbe
00000170: fcd8 c33d 8b9d 913e 009a 483c 2075 3dbd
00000180: 2bfb 1bbe 685d 2fbd 846a a43d 9705 71be
-0.027888834 0.2071273 0.08953881 0.091165304 -0.03744909 0.22849807 -0.058327943 0.27217063
-0.14477237 0.0050309896 0.30382302 0.19418034 -0.12438254 0.09879014 -0.05607778 0.09334198
-0.22535324 0.16279528 0.09098095 -0.19735272 -0.23913006 -0.2679414 -0.18191554 -0.117856085
0.076138645 -0.023655564 0.14479136 -0.035879254 -0.017714262 -0.30904368 0.2729424 -0.23022754
-0.10971004 0.26022276 0.2707788 -0.16753213 -0.23719552 0.26188436 -0.26276183 -0.08767176
-0.055204093 -0.13705452 -0.25747666 0.123577744 -0.046423376 0.18583182 0.24517676 -0.29798108
-0.2516727 -0.016207308 -0.075242385 -0.081405446 0.28580114 -0.24528468 0.13362622 0.19379595
0.18547294 -0.084287405 0.107382804 0.0519841 0.2555922 -0.23579136 -0.028119624 -0.16978142
0.17359066 0.02850759 -0.20822576 -0.28261042 0.021196216 -0.25760412 0.31250778 -0.22739449
-0.23007077 0.13714996 0.27347985 -0.28567263 0.28153643 0.034217536 0.054766327 0.21521297
0.07209247 0.013186246 0.26190928 -0.2810957 -0.007553339 -0.15995853 -0.258646 0.18871662
-0.04147625 -0.06618598 0.110352814 -0.20076102 0.09562871 0.28440508 0.012243748 -0.046254277
-0.15232532 -0.04281369 0.08028129 -0.23537289

bias f4 [10]
00000000: 5677 14be d1b7 913e 923c 74be 6a7a 633e
00000010: 436b 903e ef4f 913e 8a33 4f3e 24c8 8abe
00000020: a3c5 973e 89c8 9e3e
-0.14498648 0.28460553 -0.2385123 0.22214666 0.28206834 0.28381297 0.20234504 -0.2710582
0.29642972 0.3101237

weight f4 [2, 10]
00000000: 7141 09be 06ef 0dbe 1c11 e63d 7e9d 29be
00000010: 408c c13b c24b dfbd a2cf 493e 257f 9ebe
00000020: 66a2 25be 1760 89be 5808 cfbd c027 dc3c
00000030: 26d5 463e 875d 94be 96dd 8bbe 1027 c83d
00000040: 0834 95be 50ed 3c3d c7a1 943e 00ac cbbc
-0.1340387 -0.13860711 0.11233732 -0.16563985 0.0059066117 -0.109031215 0.19708112 -0.3095638
-0.16175231 -0.26831123 -0.10109013 0.026874423 0.19417247 -0.28977606 -0.27317494 0.097730756
-0.2914126 0.046124756 0.29029676 -0.02486229

bias f4 [2]
00000000: 76bb d7bd 4aa6 6a3e
-0.10533802 0.22914997
