Simple Login/backend/uploads/765.pt (torch, 4903 bytes, 3 tensors)

weight f4 [10, 10]
0.9895534 -0.87668556 0.94283146 0.21153665 -0.12969448 0.1346479 -1.2735833 -1.5210284
-0.717324 -0.28529543 0.46852562 -0.2590094 0.8747646 1.2825559 -0.41698632 -0.20231695
0.24682653 -0.2292901 0.65247357 1.70706 -0.17357555 1.8292499 -0.6417169 -0.039728187
0.729872 0.7699332 -0.40495986 0.28302842 -0.62167937 0.30910173 1.0516253 0.015203052
-0.29583827 1.4366568 0.46832627 -0.7491243 0.47225913 0.5154194 -0.2000466 -0.72268146
0.98941845 0.61563325 -1.003958 -1.0709884 -1.6052636 0.2545597 0.29572356 -1.4632536
-2.04642 -0.24436405 1.8825516 -0.32355726 -0.06995922 -0.42818233 -0.828908 0.41638148
-1.0462986 -0.12809245 1.0187504 0.5082879 2.2504017 0.45808887 -0.18878406 -0.5130939
0.047364272 0.06731593 1.3616645 0.8332387 -0.752267 1.2778406 -0.7135535 -0.030161204
-0.031012097 1.0597553 0.5424132 1.3283919 -1.8233902 -0.8495007 0.75077516 0.9073974
-1.3452877 -1.4363334 1.1150976 -0.06278934 -1.1266061 0.71846765 0.7114641 0.3038811
3.1548772 -0.43495908 2.3108857 -0.77511877 0.46821475 -0.1807436 1.2182972 1.0283992
-0.19635963 -0.1318255 -1.4846041 1.5799955
00000000: 5f53 7d3f 776e 60bf 675d 713f 109d 583e
00000010: a1ce 04be 24e1 093e c704 a3bf 0fb1 c2bf
00000020: 8ca2 37bf 3e12 92be 97e2 ef3e e19c 84be
00000030: 93f0 5f3f cb2a a43f 3b7f d5be 2d2c 4fbe
00000040: 18c0 7c3e 06cb 6abe 8208 273f f180 da3f
00000050: cabd 31be dc24 ea3f 8f47 24bf 06ba 22bd
00000060: e4d8 3a3f 581a 453f e656 cfbe 1ae9 903e
00000070: 6126 1fbf 9542 9e3e a89b 863f 3916 793c
00000080: 1d78 97be 5fe4 b73f 76c8 ef3e 9cc6 3fbf
00000090: f3cb f13e 87f2 033f 04d9 4cbe a701 39bf
000000a0: 874a 7d3f 249a 1d3f b281 80bf 2616 89bf
000000b0: 4779 cdbf a655 823e 1469 973e e54b bbbf
000000c0: 8cf8 02c0 923a 7abe 73f7 f03f 4ca9 a5be
000000d0: c846 8fbd b73a dbbe 5133 54bf f42f d53e
000000e0: 1ded 85bf ab2a 03be 6a66 823f 281f 023f
000000f0: 9506 1040 a08a ea3e 9c50 41be 1f5a 03bf
00000100: 0a01 423d efdc 893d 064b ae3f 224f 553f
00000110: 9294 40bf 4890 a33f 71ab 36bf a114 f7bc
00000120: 150d febc 10a6 873f 97db 0a3f bf08 aa3f
00000130: da64 e9bf e178 59bf cd32 403f 324b 683f
00000140: 6332 acbf c6d9 b7bf 85bb 8e3f b397 80bd
00000150: a134 90bf 7fed 373f 8322 363f 4e96 9b3e
00000160: 82e9 4940 f5b2 debe 8de5 1340 2f6e 46bf
00000170: d8b9 ef3e da14 39be 2af1 9b3f 96a2 833f
00000180: 8012 49be 44fd 06be 8207 bebf 4b3d ca3f

weight f4 [10, 10]
0.043462515 -0.29700005 -0.23290527 -0.015854418 0.0012292266 -0.0229972 -0.2318387 -0.018720478
-0.07754426 0.24649194 0.10260567 0.11608255 -0.25571877 0.23256227 0.05729857 -0.22777154
-0.22287488 -0.057568997 -0.0928428 0.12144512 -0.3112344 0.21509555 0.12517071 0.012961656
0.16022214 0.05089718 0.1042141 0.2551699 0.21541527 -0.061416745 -0.012404144 -0.034128368
-0.08228047 0.2911528 0.15490717 0.06998935 0.29364297 -0.22413823 -0.29307368 0.059547573
-0.3149997 -0.28158048 0.3075935 0.25264773 0.19448665 -0.054833263 0.23861405 0.013489634
-0.15622471 -0.19158112 -0.15929641 -0.21946901 -0.2795586 0.22331026 0.0235084 0.05670291
0.14285839 -0.08203262 0.11707553 0.2196674 0.17564747 0.24328735 0.3130066 0.17969865
0.14717111 0.06676954 0.049565673 -0.25017133 0.0899533 -0.2250514 0.065999 -0.19156367
-0.16134311 -0.1434815 0.2694293 -0.054638267 -0.049936116 -0.043865293 -0.1225445 -0.044915706
0.17867595 0.1542499 -0.23130608 -0.25826418 0.23898008 -0.26532215 0.23880753 -0.30104128
0.23479655 -0.26972473 -0.033446282 -0.09713143 -0.078614146 -0.27545762 -0.31620067 -0.066327855
-0.1138656 -0.18658867 0.28732255 0.0820159
00000000: c005 323d 6410 98be b87e 6ebe 20e1 81bc
00000010: 001e a13a a064 bcbc 2067 6dbe b05b 99bc
00000020: 86cf 9ebd 6268 7c3e ec22 d23d b0bc ed3d
00000030: 92ed 82be ce24 6e3e e8b1 6a3d f13c 69be
00000040: 5039 64be 78cd 6bbd 5e24 bebd 38b8 f83d
00000050: 1e5a 9fbe 0242 5c3e c02c 003e 205d 543c
00000060: 4611 243e 9079 503d 346e d53d a1a5 823e
00000070: d295 5c3e 2090 7bbd c03a 4bbc 30ca 0bbd
00000080: aa82 a8bd fb11 953e fc9f 1e3e 9456 8f3d
00000090: 5f58 963e 7e84 65be c10d 96be 28e8 733d
000000a0: a447 a1be 512b 90be e57c 9d3e 0b5b 813e
000000b0: 8227 473e d898 60bd 3e57 743e a003 5d3c
000000c0: 5ff9 1fbe d72d 44be 991e 23be 7cbc 60be
000000d0: 4e22 8fbe 72ab 643e b094 c03c 5041 683d
000000e0: 7849 123e b800 a8bd 4cc5 ef3d 7ef0 603e
000000f0: eedc 333e 5220 793e 6742 a03e ec02 383e
00000100: 06b4 163e 78be 883d 6005 4b3d 7516 80be
00000110: 7039 b83d e073 66be 7c2a 873d 4429 44be
00000120: 2137 25be d0ec 12be a3f2 893e 60cc 5fbd
00000130: d089 4cbd 18ac 33bd 9cf8 fabd 88f9 37bd
00000140: d4f6 363e b0f3 1d3e 80db 6cbe 343b 84be
00000150: 32b7 743e 4ed8 87be f689 743e 1522 9abe
00000160: 826e 703e 5c19 8abe f8fe 08bd d8ec c6bd
00000170: 7400 a1bd c808 8dbe 0ee5 a1be e6d6 87bd
00000180: 5e32 e9bd 1a11 3fbe f11b 933e f4f7 a73d

bias f4 [10]
-0.12939134 -0.06181547 -0.14368404 -0.18975559 0.0124593675 -0.068635985 -0.15123628 0.06841484
0.1909037 -0.28007516
00000000: 2a7f 04be 3832 7dbd e921 13be 4a4f 42be
00000010: 6022 4c3c 0691 8cbd afdd 1abe 141d 8c3d
00000020: 427c 433e 0366 8fbe
